pm25/model-transform.pt (torch, 49888 bytes, 14 tensors)

encoder.layers.0.enc_self_attn.W_Q.weight f4 [300, 1]
000000 d0 98 61 bf 40 b3 dd 3c 90 9c 8d bd e8 c0 b1 be
       -0.881238 0.027063012 -0.069146276 -0.34717488
000010 60 21 ef 3d 14 87 a7 be 78 af 7c be 04 e6 9d 3e
       0.11676288 -0.32720244 -0.24676311 0.3083955
000020 b0 40 ca 3d be 9a 2e 3f 58 fa 97 3e 40 90 16 be
       0.098756194 0.6820487 0.29683185 -0.14703465
000030 62 9c 68 bf 40 9d aa be 50 9b 32 3f 2c 6a 26 3f
       -0.9086362 -0.33323097 0.6976824 0.65005755
000040 dc b6 d1 be dc d7 f2 3e 54 e6 b6 3e f0 0e 27 3e
       -0.40959823 0.47430313 0.357226 0.16314292
000050 00 7f 63 bf 30 8c cb bd 90 d6 db 3e 6c 2e df be
       -0.8886566 -0.09938848 0.42937136 -0.43590105
000060 70 73 7d bf 4a 0d 2a bf 92 61 56 bf ea a1 0c bf
       -0.9900427 -0.6642653 -0.8374263 -0.5493456
000070 a8 60 16 be 28 02 5b be 60 90 00 bf 78 bc b6 be
       -0.14685309 -0.21387541 -0.502203 -0.35690665
000080 40 de 5d bf 12 70 09 bf 30 d9 dd 3e f8 6f 0f 3f
       -0.8666725 -0.5368663 0.43329763 0.56030226
000090 bc 5d fa 3e e4 22 cf 3e 28 e2 2b 3e f4 d3 2d 3f
       0.4889964 0.40456307 0.1678549 0.6790154
0000a0 00 90 eb b9 ca 3d 05 bf ec f9 45 bf 54 86 6e bf
       -0.0004492998 -0.5204741 -0.77334476 -0.9317372
0000b0 c8 3e f2 be a0 da 20 3d 36 51 76 3f 20 94 5a bd
       -0.47313523 0.039270997 0.9621767 -0.05336392
0000c0 40 46 74 3d de 51 32 bf e0 ff 68 3d 94 3f f1 be
       0.059637308 -0.6965617 0.056884646 -0.4711882
0000d0 b4 62 2b bf b8 c9 3f 3f fe c8 3d 3f f8 df 71 be
       -0.66947484 0.74917173 0.74134815 -0.23620594
0000e0 80 6f 95 3d 72 19 35 3f 08 b2 2b 3f 4c c9 3c 3f
       0.072966576 0.7074195 0.6706853 0.73744655
0000f0 78 60 64 3e a4 20 df be 80 f7 26 bf f4 cb b6 3e
       0.22302425 -0.4357959 -0.65221405 0.3570248
000100 80 08 11 3f c4 49 4d bf 00 67 33 3e 76 da 55 3f
       0.56653595 -0.8019068 0.1751976 0.8353647
000110 10 2a 94 be a8 7d 55 3e 32 d1 23 bf cc fe e2 3e
       -0.2893834 0.20848715 -0.6399108 0.4433502
000120 30 99 d8 3e c6 07 7e bf 80 fe f3 3d 68 5d 46 3e
       0.42304373 -0.9923061 0.119137764 0.19371569
000130 e0 04 f4 bd c0 62 b5 3c 04 0c ab be 56 02 5b bf
       -0.11914992 0.022141814 -0.33407605 -0.8555044
000140 bc 21 06 3f a8 d5 27 3e 56 d1 66 bf 1a 38 24 3f
       0.52395225 0.16390097 -0.9016317 0.64148104
000150 d0 18 b5 3e a8 15 22 3e 0c 65 4e 3f 9c a4 35 3f
       0.35370493 0.15828574 0.80622935 0.709543
000160 28 c9 20 3e c0 43 30 3f 4a 2e 34 3f 18 a5 66 bf
       0.15701735 0.6885338 0.7038313 -0.90095663
000170 10 8e 2f be 10 6c 4f be 4e 85 4d 3f 64 75 3a 3f
       -0.17144036 -0.20256066 0.8028153 0.72835374
000180 30 58 4c be aa 66 3d bf e0 34 5f bf 26 4d 6f 3f
       -0.19955516 -0.7398478 -0.87190056 0.93477094
000190 e4 4b c4 be e6 da 34 3f 70 90 1c 3f a0 24 9d 3e
       -0.3833915 0.7064651 0.61157894 0.30692005
0001a0 54 f5 40 bf f8 7e 17 bf 24 08 2e bf 30 25 db be
       -0.7537434 -0.59178114 -0.6798117 -0.4280181
0001b0 fe b3 22 3f e4 82 26 bf e4 2a 38 bf d2 c5 21 bf
       0.63555896 -0.65043473 -0.71940446 -0.63192475
0001c0 9a 22 79 3f 20 2e ab 3e 58 da 7f 3f c2 b7 52 bf
       0.9731842 0.33433628 0.9994254 -0.8231164
0001d0 b8 65 f6 3e 20 a6 ba 3d 94 6f 14 bf 40 67 b8 bd
       0.4812448 0.09113717 -0.57982755 -0.090040684
0001e0 42 e9 64 bf 4e 47 51 3f 22 db 29 bf 80 0b 5e 3f
       -0.89418423 0.8174943 -0.66349995 0.867363
0001f0 28 16 39 be 34 a0 3d 3f fc a9 2d 3f 1c ca ba be
       -0.18074858 0.74072576 0.678375 -0.36482322
000200 c4 3d 1c bf 28 fa 68 3e 76 76 56 bf 20 0e 8b 3d
       -0.61031747 0.22751677 -0.8377451 0.067898035
000210 76 1d 20 bf bc eb 10 3f a8 67 a9 3e 6c 63 d5 be
       -0.62544954 0.566097 0.33086896 -0.41677415
000220 ca 7b 3c 3f 30 9e 09 bf d6 c7 0f 3f 8e 64 3a 3f
       0.7362639 -0.53757 0.561643 0.72809684
000230 e6 03 68 bf 12 7b 7a 3f 02 a0 7b bf 80 23 12 3d
       -0.9063095 0.9784404 -0.9829103 0.035678387
000240 a4 e8 23 3f f0 d0 e1 be b0 a5 9f 3e 00 c9 d8 bd
       0.64026856 -0.4410472 0.31181097 -0.10585213
000250 d8 d4 fa be 24 97 cb 3e c6 c7 0c bf 40 95 09 3d
       -0.48990512 0.3976375 -0.5499233 0.0335896
000260 5c 9d 29 bf 5e cd 16 3f 12 a7 37 bf 40 4f b2 be
       -0.66255736 0.58907115 -0.71739304 -0.34826088
000270 fc 8d ce be 08 0c 14 bf f4 7b 3b 3f 72 6c 31 3f
       -0.403427 -0.5783086 0.7323601 0.693061
000280 60 3e dc be 2c de 2b 3f 86 7f 74 3f 30 10 aa bd
       -0.43016338 0.6713588 0.95507085 -0.08303869
000290 00 16 1b 3b b8 67 55 3f 62 13 29 3f c0 85 01 3e
       0.0023664236 0.8336139 0.660452 0.12648678
0002a0 a6 62 16 3f a0 43 41 be c8 ad 31 be a2 f1 18 3f
       0.58744276 -0.18873453 -0.17351449 0.597437
0002b0 00 54 20 3d 0c 6a c2 be e8 df 83 3e 3e 58 54 bf
       0.03914261 -0.37971532 0.25756764 -0.82947147
0002c0 9a 50 3b bf 84 c8 fc be 2a f2 14 bf bc 7f cf be
       -0.73169863 -0.4937173 -0.58182013 -0.4052714
0002d0 96 28 02 3f 18 b7 6e be 3c b3 9a 3e e8 7e b1 be
       0.5084318 -0.23312032 0.3021487 -0.34667134
0002e0 88 10 69 bf 56 4c 27 3f c8 5b 22 be 2c e7 d3 3e
       -0.9104085 0.65350854 -0.15855324 0.41387308
0002f0 c8 0a 9c be 80 b7 2c 3f 96 82 21 3f b4 9a b4 be
       -0.30476975 0.674675 0.63089883 -0.3527428
000300 f8 89 2a bf 58 ac 5f be a8 83 19 3e 30 33 fb be
       -0.66616774 -0.21843088 0.14991629 -0.4906249
000310 d0 f8 61 bf a8 e4 80 be 08 5e d0 be ee 25 4a 3f
       -0.8827028 -0.2517445 -0.4069674 0.78964126
000320 90 cd a9 3e a0 89 d5 be 32 a3 26 3f ee b0 3e 3f
       0.33164644 -0.41706562 0.65092766 0.74488723
000330 f8 0a 79 3f c0 7b 6c 3d d0 a0 ef 3e 80 1e 5f 3c
       0.9728236 0.057735205 0.46802378 0.013618112
000340 ea ba 7c bf 0c 2d 70 bf f4 f3 b5 3e 74 e6 91 3e
       -0.9872271 -0.93818736 0.35537684 0.28496134
000350 a6 b9 1b bf ec f7 1e bf d4 40 06 3f c4 9f cf be
       -0.6083015 -0.6209705 0.5244267 -0.4055158
000360 d2 cd 64 bf d0 d0 a0 3d 6a e9 2e bf 86 07 1b bf
       -0.89376557 0.07852328 -0.6832491 -0.60558355
000370 88 6d 49 3e 50 ce fd 3e 44 cb 27 3f 56 7f 5b bf
       0.19670689 0.49571466 0.65544534 -0.85741174
000380 40 d7 ab 3d 40 c0 cb bc 48 4f 2b be 30 2d bb 3e
       0.08390665 -0.024871945 -0.16729462 0.36557913
000390 1c 60 78 bf 3a 39 12 3f d2 5b 07 3f c6 f4 16 3f
       -0.9702165 0.5711857 0.5287448 0.58967245
0003a0 e8 3e 6b be a8 86 22 3e 9c ba 9b be 80 a3 24 3d
       -0.22973216 0.1587168 -0.3041581 0.04019499
0003b0 a4 5a 46 bf 30 66 98 bd 20 05 65 be 74 ec 0d bf
       -0.77482057 -0.07441366 -0.22365236 -0.55438924
0003c0 28 2d 32 be c0 ae e5 be 70 0d a0 bd ce 94 57 3f
       -0.17400038 -0.44859886 -0.07815063 0.8421143
0003d0 60 36 d8 3d 58 67 93 be d8 e1 30 bf c8 70 7d 3f
       0.10557246 -0.28789783 -0.6909461 0.99000216
0003e0 f6 fb 1f 3f c4 a0 be 3e 38 25 03 be e0 3e 46 bd
       0.62493837 0.3723203 -0.12807167 -0.048399806
0003f0 26 11 25 bf 04 a7 c8 3e 20 19 db 3d 64 38 ee be
       -0.6447929 0.39189923 0.106981516 -0.46527398

encoder.layers.0.enc_self_attn.W_K.weight f4 [300, 1]
000000 84 9c 7d bf bc 66 10 3f 4e 7a 51 3f 3a e4 36 3f
       -0.9906695 0.5640676 0.8182725 0.71441996
000010 44 97 03 bf cc e0 64 bf b8 84 68 be 4c c0 94 be
       -0.5140269 -0.8940551 -0.22706878 -0.2905296
000020 9a e1 4d bf 88 d6 65 3f 80 25 d9 be e4 c7 fe be
       -0.80422366 0.89780474 -0.42411423 -0.4976188
000030 e4 16 ee 3e ec 30 5b bf 30 14 73 3f ea de 00 bf
       0.4650184 -0.85621524 0.9495268 -0.5034014
000040 96 3e 15 bf b8 ac 78 bf 5c 7a 07 bf 8e bb 0c 3f
       -0.58298624 -0.9713855 -0.5292108 0.54973686
000050 20 59 df be 44 89 70 3f 48 3a a5 be e2 3f 77 bf
       -0.43622684 0.9395945 -0.32271028 -0.9658185
000060 0c f4 48 3f 18 60 20 be 30 1f e7 3d a0 39 4b 3f
       0.78497386 -0.15661657 0.112852454 0.79384804
000070 86 1b 76 bf b8 80 4a be 1a 7e 5a bf 42 52 65 3f
       -0.9613575 -0.19775665 -0.85348666 0.8957864
000080 62 c6 30 3f 30 eb 1c 3f 30 a9 17 3f 90 f2 b1 bd
       0.6905271 0.6129637 0.59242535 -0.08688843
000090 c0 e3 28 bd 96 9f 6a bf fe 83 74 bf 84 bf 33 bf
       -0.041232824 -0.9164976 -0.95513904 -0.70214105
0000a0 08 78 85 3e 30 8f 4d 3f 80 7a 22 bd 58 16 de be
       0.2606814 0.8029661 -0.039667606 -0.43376422
0000b0 82 9b 7b bf 30 41 44 bf ae f0 4a bf 10 11 47 3f
       -0.9828416 -0.7666197 -0.792735 0.7776041
0000c0 7a 7d 1d bf 36 45 3c 3f 3a 95 39 bf 18 f5 da be
       -0.6151959 0.7354311 -0.72493327 -0.42765117
0000d0 72 d1 24 bf 50 49 1f be 38 0e 47 bf ba a5 1e 3f
       -0.6438209 -0.1555531 -0.7775607 0.6197163
0000e0 f4 d2 df be 16 ac 0c bf d2 9a 12 bf 1a 0e 12 3f
       -0.43715632 -0.5495008 -0.5726749 0.5705277
0000f0 28 a5 69 be 72 6c 4b bf b4 2f 48 bf 02 50 71 3f
       -0.22816908 -0.7946235 -0.7819779 0.9426271
000100 0a c0 12 3f 40 0d 25 bd b0 c9 61 be 06 2b 41 bf
       0.5732428 -0.04029584 -0.22049594 -0.75456274
000110 ce 8c 78 bf 88 cc 82 be 44 5d d4 be c4 8e 5b bf
       -0.9708985 -0.2554667 -0.41477406 -0.8576472
000120 50 6c e5 bd 54 96 28 3f 24 fa 40 bf 32 e5 05 3f
       -0.112022996 0.6585438 -0.75381684 0.5230285
000130 82 ad 4b 3f 98 e3 21 be 78 48 ab 3e b0 8d bd be
       0.79561627 -0.15809476 0.33453727 -0.3702216
000140 12 a2 5f bf 04 52 b4 be 78 1b b1 be 2c 96 d9 3e
       -0.87356675 -0.35218823 -0.3459127 0.42497385
000150 28 f4 3f 3e cc 16 71 3f be e0 09 3f 06 1b 08 3f
       0.18745482 0.9417541 0.53858554 0.53166234
000160 f4 af 93 3e 20 46 25 3d cc d9 26 bf 5a b8 44 3f
       0.2884518 0.04035008 -0.6517608 0.768438
000170 50 10 1e be 86 01 2e bf e8 75 53 bf 82 4a 43 3f
       -0.1543591 -0.67971075 -0.82601786 0.76285565
000180 7a 0e 5a bf a4 40 d8 3e b8 0b 5c 3e ec b6 e5 be
       -0.8517834 0.42236817 0.21488845 -0.4486612
000190 80 2d 78 3d c8 3e 81 be 00 9e 4a 3e 70 b3 3b bf
       0.060590267 -0.2524321 0.19786835 -0.73320675
0001a0 6a 20 53 3f 84 24 ec 3e 20 55 24 bf e8 53 b6 3e
       0.82471335 0.4612161 -0.6419239 0.3561089
0001b0 60 44 87 3e b8 dd 52 bf 2c 8c 9e be 22 ea 6f bf
       0.26419353 -0.82369566 -0.30966318 -0.93716633
0001c0 80 ac 15 3c 14 75 98 3e ec cf e6 3e f8 f4 43 3e
       0.0091353655 0.29776824 0.45080507 0.19136417
0001d0 1e 6a 40 bf a4 01 ff be d4 fc 3a 3f 6c 77 17 bf
       -0.7516192 -0.4980594 0.73042035 -0.591666
0001e0 58 0d 2d be 5a 9f 71 bf a0 db c8 bd 46 a3 79 bf
       -0.16899621 -0.94383776 -0.09807515 -0.9751476
0001f0 44 24 de 3e 8c ff ab 3e e4 b0 70 3f d8 7e 67 3f
       0.43387043 0.33593404 0.94019914 0.90427923
000200 ec 76 7d bf f6 69 2f 3f 1c d2 a3 3e 5e ce 59 bf
       -0.99009585 0.6852106 0.31996238 -0.85080516
000210 cc 3f 09 bf 9a df 51 bf 32 25 04 bf d0 58 21 3e
       -0.5361297 -0.81981814 -0.51619256 0.15756536
000220 c0 b0 c7 bd a4 38 11 3f d6 f5 18 3f 04 84 c7 3e
       -0.09750509 0.5672705 0.59750116 0.38967907
000230 36 b8 13 3f de 84 01 3f 2a 64 64 3f 22 86 17 3f
       0.5770296 0.50593364 0.8921534 0.59189045
000240 e0 91 14 be 26 b6 5c bf 40 ba 62 3f 14 c8 2a 3f
       -0.14508772 -0.86215436 0.88565445 0.66711545
000250 38 84 6f be 82 69 7f 3f 50 30 9c bd 4c b8 42 3f
       -0.23390281 0.9977037 -0.076264024 0.76062465
000260 64 cd d1 be cc 60 c3 be fe c4 0c bf 00 c0 9a b9
       -0.40977013 -0.38159788 -0.54988086 -0.0002951622
000270 3e 6d 40 bf 82 87 72 bf ee 87 77 3f f4 13 6e bf
       -0.7516669 -0.9473802 0.9669179 -0.92999196
000280 2c 21 33 3f e8 8b 27 3e 60 e2 fd 3d f0 27 be bd
       0.6997249 0.16361964 0.12396693 -0.09284961
000290 18 71 62 3e b6 de 02 3f 18 26 2e 3f 66 19 3e bf
       0.22113454 0.5112108 0.68026876 -0.74257505
0002a0 7e 48 62 bf dc 9d ea be b0 b3 53 3f 00 84 73 3d
       -0.88391864 -0.45823562 0.82696056 0.059452057
0002b0 a0 c2 61 3e 26 5a 55 bf 98 47 b8 3e 70 53 86 3d
       0.220469 -0.8334068 0.35992122 0.06558883
0002c0 90 1f 50 be b4 67 2b 3f 00 a8 bf bb d2 96 58 bf
       -0.2032454 0.66955113 -0.0058488846 -0.84605134
0002d0 ee e4 4a bf 98 00 00 be 98 4f 8e 3e 38 03 09 3e
       -0.7925557 -0.12500226 0.277951 0.13380134
0002e0 cc 48 a7 3e 1c f3 ad 3e 44 1c c9 3e a2 b9 41 bf
       0.32672727 0.3397454 0.39279377 -0.7567388
0002f0 ce 7c 1f bf 56 36 1b 3f 2c 92 35 3f 8c 83 71 bf
       -0.6229981 0.60629785 0.70926166 -0.9434135
000300 aa dd 3d bf 4c 35 35 3f ae de 6f bf 00 99 a1 3c
       -0.7416636 0.7078445 -0.9369916 0.019726276
000310 ce 87 04 bf ea 4f 21 bf d4 b6 55 bf e0 37 17 3d
       -0.5176972 -0.63012564 -0.834821 0.03691852
000320 98 02 10 3f 9c 68 74 3f 24 75 16 3f 20 8b 2a be
       0.5625396 0.9547212 0.5877249 -0.16654634
000330 ca ff 41 3f 88 91 0b be 50 ed 71 bf 62 fc 1d bf
       0.7578093 -0.13629735 -0.94502735 -0.6171323
000340 04 95 93 be 50 41 28 be 10 a8 bd 3d 30 00 1f 3e
       -0.28824627 -0.16431165 0.09260571 0.15527415
000350 0e ee 76 3f 40 5a bd 3e b0 f0 09 3f e0 e5 55 be
       0.9645699 0.36982918 0.53882885 -0.20888472
000360 30 be c6 be 40 88 0b bd d4 0b 0a bf b4 6f 37 3f
       -0.38816977 -0.034065485 -0.539243 0.7165482
000370 00 f0 d3 3b e4 8a c2 3e fc 2f 7f 3f 08 5c 80 3e
       0.006467819 0.3799659 0.99682593 0.25070214
000380 a6 3a 03 3f c0 49 34 3d 02 f3 21 3f 5c af f3 be
       0.51261365 0.044015646 0.63261425 -0.47594726
000390 08 dc bd be e0 61 70 3f b8 ed ff be d0 25 df 3d
       -0.37081933 0.93899345 -0.49986053 0.10895884
0003a0 56 61 41 3f 20 12 6c 3f 1c 88 48 bf f0 00 69 be
       0.7553915 0.92215157 -0.78332686 -0.22754264
0003b0 60 ef 63 bd 6a 02 00 3f cc eb 25 3f 28 a2 71 be
       -0.055648208 0.50003684 0.6481292 -0.23597014
0003c0 88 aa fd 3e bc 4b 91 be 44 69 16 bf 76 62 08 3f
       0.49544168 -0.28378093 -0.5875437 0.5327524
0003d0 68 ca 3c 3e 04 e5 55 3f 40 34 bf 3d 44 66 19 3f
       0.18436587 0.83552575 0.09336138 0.5992167
0003e0 58 fb 34 3f 14 75 2e 3f 60 a4 13 bf 18 23 48 3f
       0.7069602 0.681474 -0.5767269 0.7817855
0003f0 00 40 af ba 50 f0 58 3f c0 e2 82 bc b0 94 88 be
       -0.0013370514 0.8474169 -0.015977263 -0.2667594

encoder.layers.0.enc_self_attn.W_V.weight f4 [300, 1]
000000 38 3a ca 3e d0 96 c5 be 0e 9c 6d bf 24 93 86 be
       0.39497542 -0.38591623 -0.92816246 -0.26284134
000010 74 ae f8 3e 7a cd 74 bf aa 16 0f bf 20 20 81 bd
       0.48570597 -0.9562603 -0.5589396 -0.063049555
000020 10 b9 a4 3e f0 e7 bf 3e b6 bb 76 bf c8 3c 40 3f
       0.3217244 0.37481642 -0.96380174 0.75092745
000030 e0 16 28 bd 12 64 1e bf 00 7d cb 3d 2a d0 01 bf
       -0.04103744 -0.61871445 0.09935951 -0.5070826
000040 8c d9 cb 3e 1c 37 64 bf 9e 1e 24 bf c0 05 0a 3e
       0.39814413 -0.8914659 -0.6410922 0.13478756
000050 2a 6c 5d 3f 88 1d d4 3e 90 c9 46 be 2c 7c 2d 3f
       0.8649317 0.4142878 -0.19412827 0.67767596
000060 c6 97 0d 3f a4 36 30 3f f4 e4 9a 3e 1c 02 4f 3f
       0.5530971 0.68833375 0.30252802 0.80862594
000070 7e d0 4f bf 30 5c 18 3e c8 f0 c7 be 4c d7 3f bf
       -0.8117751 0.14878917 -0.3905089 -0.7493789
000080 a0 22 79 3e e8 4e 74 bf bc c2 72 3f 74 b9 b4 3e
       0.24329615 -0.954329 0.9482839 0.3529774
000090 40 56 64 3d 18 56 98 be 80 4e 08 3d 48 74 ca be
       0.055746317 -0.29753184 0.03327799 -0.3954184
0000a0 36 32 13 3f b0 7a 6b bf 76 66 3c bf 1e f0 41 3f
       0.5749849 -0.9198408 -0.73593843 0.75757015
0000b0 64 db f0 be 1c d3 68 bf 88 6d 29 be 38 7b 07 be
       -0.47042382 -0.9094713 -0.16545689 -0.13230598
0000c0 ec 39 87 3e 60 35 46 3e 54 0b 36 bf 6e 3b 5a bf
       0.26411378 0.19356298 -0.71111035 -0.8524693
0000d0 d0 70 01 3f 1c 0b dc 3e 90 3c fe 3e a0 77 8d 3d
       0.50562763 0.42977226 0.4965558 0.06907582
0000e0 e8 b7 63 be de 56 59 3f 1a 14 77 3f c8 92 23 be
       -0.22238123 0.84898174 0.9651505 -0.15973961
0000f0 70 f7 e6 be c6 00 11 3f 30 53 b9 3d a0 ca a8 be
       -0.45110655 0.56641805 0.0904907 -0.3296709
000100 30 8f 16 3f 88 47 18 3f fa e5 11 bf 72 33 75 bf
       0.58812237 0.5948415 -0.5699154 -0.95781624
000110 74 f1 61 bf 20 15 26 bf 30 a8 46 be 18 30 1a 3f
       -0.88259053 -0.64875984 -0.19400096 0.60229635
000120 28 b5 fb 3e 14 47 00 3f 16 a4 02 bf a0 99 0d be
       0.4916165 0.50108457 -0.51031625 -0.13828135
000130 38 40 13 be 30 d7 0a 3e cc 84 97 be f0 69 36 be
       -0.14379966 0.1355865 -0.29593503 -0.1781385
000140 4c ab b2 be d0 82 69 be 10 99 ed 3e 44 40 07 3f
       -0.34896314 -0.22803807 0.4640584 0.52832437
000150 1c b5 47 bf 58 da 7e 3e 34 06 bb 3e f4 90 c6 be
       -0.78010726 0.24887979 0.3652817 -0.38782465
000160 54 07 8e 3e 68 4e 1f 3f d0 6d 5a 3e cc 2d a4 be
       0.27739966 0.62229013 0.21330953 -0.3206619
000170 24 ae 4f 3f 3c 11 8c be 28 c6 5c be c0 2c 98 bc
       0.8112509 -0.273569 -0.21559966 -0.018576026
000180 00 06 30 3f 60 82 33 be 80 09 49 3d 58 94 78 be
       0.68759155 -0.17530203 0.049081326 -0.24275339
000190 40 97 d8 3e b0 a7 b5 bd e0 07 f1 3d 0c 1e b4 be
       0.42302895 -0.088698745 0.1176908 -0.35179174
0001a0 d0 2a c0 3d 94 e3 98 3e 60 76 ca bd 3c 18 26 bf
       0.09383166 0.29861128 -0.098858595 -0.6488073
0001b0 80 08 70 3e 20 15 d1 3d da 5e 14 3f 06 d6 18 3f
       0.23440742 0.102091074 0.5795723 0.59701574
0001c0 a8 cc c8 3e d8 9b 36 bf c8 43 77 3f 34 fe 73 bf
       0.3921864 -0.7133155 0.965878 -0.9530976
0001d0 88 9c 9f 3e e8 77 59 3f 54 39 d5 be 0c 2e 6b 3f
       0.3117411 0.8494859 -0.416453 0.91867137
0001e0 a6 43 1b bf 38 f9 55 bf ca 27 3f bf 56 b9 7b bf
       -0.606501 -0.835834 -0.7467009 -0.98329675
0001f0 a0 48 16 3f 00 b0 21 3a c8 8b 47 be d4 c6 2c 3f
       0.58704567 0.00061678886 -0.19486916 0.6749089
000200 1c 22 54 3f 60 e7 02 bd d0 dd 44 3e 10 17 00 3f
       0.82864547 -0.031958938 0.1922524 0.5003519
000210 14 a8 63 3f e8 be 40 be 94 69 8e 3e c4 fa 59 3f
       0.8892834 -0.18822825 0.27814925 0.8514826
000220 c0 12 6b 3f 00 7c 64 bf 10 3a c5 be 20 3d a4 3d
       0.91825485 -0.8925171 -0.3852086 0.08019471
000230 8a bf 71 3f 14 26 24 bf 5a 26 0d 3f 90 4f a0 be
       0.9443289 -0.641206 0.55136645 -0.313107
000240 fc 52 55 bf 6e 67 63 bf c2 3b 4b 3f 1c c7 ec 3e
       -0.8332975 -0.88829696 0.7938806 0.46245658
000250 c0 0b cd be aa ba 42 3f 1c 54 08 bf 04 bb b5 3e
       -0.40048027 0.76066077 -0.5325334 0.35494244
000260 80 cf db 3c c6 32 31 3f 40 7f 9d 3e fc 3e 4c bf
       0.026832342 0.692181 0.30761147 -0.79783607
000270 54 75 d5 3e 3c 26 dc 3e f8 5b 4f 3f 14 77 4c 3f
       0.41691077 0.4299792 0.8099971 0.798692
000280 e8 21 dc 3e cc 2a 2c bf e4 48 1f bf 64 5c c7 3e
       0.42994618 -0.672528 -0.622206 0.38937676
000290 5c d2 07 3f 10 7e 4a 3e 50 79 19 bf ec 29 c4 3e
       0.5305536 0.19774652 -0.59950733 0.38313234
0002a0 e4 f0 31 3f 48 d3 99 be d8 26 4c be 7a 53 42 3f
       0.69508195 -0.30044007 -0.19936693 0.75908625
0002b0 08 ee 8a 3e f2 e0 79 3f c8 87 24 be 70 72 d0 be
       0.27134728 0.97608864 -0.16067421 -0.4071231
0002c0 20 83 d9 3d 34 f0 0d 3f 24 c0 62 3f ac aa d7 3e
       0.10620713 0.55444646 0.88574433 0.421224
0002d0 78 e1 28 be 40 40 00 3e 80 46 d3 bd e2 99 62 3f
       -0.1649226 0.1252451 -0.10316181 0.88516057
0002e0 40 c4 f9 bc be 09 12 bf f0 67 57 be c8 08 2b 3f
       -0.030489087 -0.57046115 -0.21035743 0.66810274
0002f0 5e 13 23 bf ec b9 56 bf 30 ae d2 be d2 77 0e bf
       -0.63701427 -0.83877444 -0.4114852 -0.5565158
000300 88 43 93 be d2 b3 3b bf 04 9e c8 be a0 f3 78 be
       -0.2876246 -0.7332126 -0.39183056 -0.24311686
000310 e6 fd 55 bf 86 4e 77 3f 7c 29 c3 be 40 2c 22 3d
       -0.83590543 0.9660419 -0.38117588 0.03959298
000320 44 bf 67 3f b8 9b e9 3e 1c 11 d8 be 38 4e 4a be
       0.90526223 0.45626616 -0.42200553 -0.197564
000330 78 48 63 bf 54 00 26 3f 54 e8 0a 3f 88 fe 7e be
       -0.88782454 0.6484425 0.54260755 -0.24901783
000340 22 b7 03 bf 32 41 2f 3f 30 2f 2f be e0 b0 39 bf
       -0.51451313 0.68458855 -0.17107844 -0.72535515
000350 dc dd b2 3e 14 15 64 3f f0 fd c1 3d 80 bc 8f be
       0.3493489 0.8909466 0.09472263 -0.28073502
000360 60 c6 52 3f de 11 66 bf 34 69 04 bf ee 57 27 bf
       0.82333946 -0.89871013 -0.5172303 -0.65368545
000370 5c a3 4e bf 00 f6 af 3c 90 47 35 3f c4 5e ef 3e
       -0.80718017 0.021479607 0.7081232 0.46751988
000380 60 4f 19 bd 9e 8b 28 bf 0a 57 41 3f 68 f1 49 bf
       -0.037429214 -0.6583804 0.75523436 -0.7888398
000390 70 5c 12 be c0 72 f4 3e 40 f0 e5 3d 60 ff 9b be
       -0.14293075 0.47743797 0.11227465 -0.30468273
0003a0 50 81 a2 bd b0 ce b8 3e 8a 40 6a bf d0 81 01 3e
       -0.07934821 0.3609519 -0.9150473 0.12647176
0003b0 88 96 1b be 7e d3 76 bf 78 f5 fb be d2 c2 6d 3f
       -0.15194142 -0.9641646 -0.49210715 0.928754
0003c0 1c 26 ba 3e 90 71 d5 3d 58 09 a0 3e 64 1f 62 bf
       0.363572 0.10422051 0.3125713 -0.8832915
0003d0 76 1b 33 bf e8 5b 27 3e 5e 11 1c bf b4 b3 79 3f
       -0.6996378 0.16343653 -0.60964 0.9753983
0003e0 f4 5c b3 3e 64 0d 9a be b0 81 2b be ee 05 22 bf
       0.35031855 -0.3008834 -0.1674869 -0.632903
0003f0 d0 1a 14 3f 94 fb 5d 3f 20 a9 48 bf 46 c9 4e 3f
       0.5785341 0.86712 -0.78383064 0.8077587

encoder.layers.0.enc_self_attn.fc.weight f4 [1, 300]
000000 2f 9a 47 bd 57 2c e1 bc 22 72 03 bd ae 80 04 bd
       -0.048731025 -0.027486963 -0.032091267 -0.03234928
000010 b4 9d 56 bd e7 94 35 bd 79 75 fa bc 98 1e b7 bb
       -0.05239649 -0.044331457 -0.030573593 -0.005588364
000020 e4 37 9e 3c ab e1 f1 bc 2e 4d 4e 3d a0 fc c3 3c
       0.01931376 -0.029526552 0.050366573 0.023924172
000030 23 8c fe bc 58 71 89 3b 3f 30 4e bd 20 ce 6c 3b
       -0.031072682 0.00419442 -0.05033898 0.0036133602
000040 a4 a9 c5 3c 90 79 6e bb 60 ff 67 3d de 56 8b bc
       0.024128743 -0.0036388375 0.05664003 -0.017009195
000050 90 f4 79 3b fe b3 05 bd 1c 8a 04 bd 84 30 14 bd
       0.0038140155 -0.032642357 -0.032358274 -0.03617908
000060 70 ad 46 3b 9e 6c 32 3d 00 48 6b 3d 20 f5 37 3c
       0.003031578 0.043560617 0.05744171 0.011227876
000070 d0 4e 4f bc b0 05 66 3b 73 2a 61 bd a4 de 40 bd
       -0.012653068 0.0035098605 -0.054972123 -0.047087327
000080 94 d9 64 bc 20 e5 d1 3a dc 9e 01 bc 40 68 49 3b
       -0.01396789 0.0016013719 -0.00791141 0.0030732304
000090 86 f5 cb bc 64 b3 1e 3d d0 7f cc bc 6c 72 2f bd
       -0.024897348 0.0387453 -0.02496329 -0.04283373
0000a0 20 34 83 3c b4 a8 23 3d e0 34 5d 3c be 40 4b 3d
       0.016016066 0.03995581 0.013501376 0.04962229
0000b0 90 ec 07 3c 9f 78 00 bd bc 8f 16 bd 50 4f 54 bd
       0.008296147 -0.031365033 -0.03675817 -0.05183345
0000c0 23 85 e5 bc 8c ae 63 3d bc e9 37 bc a4 e4 24 bc
       -0.028017586 0.055586383 -0.01122516 -0.010064278
0000d0 9c 3f 36 bd c0 fd 03 3a ae 46 4f bd 9c d7 58 3d
       -0.044494256 0.0005035065 -0.050604515 0.052939996
0000e0 1e a3 81 bc b8 ec 72 3c a9 6e 0f bd 5c 54 0d 3d
       -0.01582485 0.014826946 -0.035017643 0.03450428
0000f0 44 8b 35 bd d8 7b ad 3c 4b 27 50 bd 96 3f 67 3d
       -0.044322267 0.021177217 -0.050818723 0.056457125
000100 f8 c3 e0 bc 70 ee 31 3c e0 35 04 bd 50 0d 19 3c
       -0.027437195 0.010860071 -0.03227794 0.009341553
000110 a8 bc ce bc 82 6c 41 bd a4 a8 d6 3c 90 63 a7 bb
       -0.025236443 -0.04722262 0.026203461 -0.0051083043
000120 00 c3 3d b9 5e ac 38 bd e0 16 32 3c 86 96 3d 3d
       -0.00018097088 -0.045086257 0.010869712 0.04628613
000130 a0 c3 d4 ba 4c ae 1f bc a4 23 e5 3c 8e 97 24 bd
       -0.0016232617 -0.009746145 0.027971096 -0.040183596
000140 7c 7b d6 3c 56 55 23 3d 76 0e 5e bd 38 1b fa 3c
       0.026181929 0.039876305 -0.05421301 0.030530557
000150 b8 6d 96 3b 04 b0 68 3d 84 4d 4d 3d 70 07 a7 3b
       0.004590716 0.056808487 0.050122753 0.005097322
000160 8e 8c 37 bd 76 0a 44 3d 74 c6 d6 bc f8 30 1b 3d
       -0.044811778 0.04786154 -0.026217677 0.037888497
000170 ee c3 07 bd 0d cc fe bc f4 35 d6 bc 96 bf 3d bd
       -0.033145837 -0.031103158 -0.026148774 -0.04632529
000180 18 fc 52 bc 66 1f 85 bc d0 c0 43 3c 74 09 f2 3c
       -0.012877487 -0.016250324 0.011947826 0.029545523
000190 b4 1d 57 bd 44 fa 28 bd e8 35 08 3d 88 c8 d4 bc
       -0.05251856 -0.041254297 0.033254534 -0.025974527
0001a0 58 c1 07 3c 94 c4 eb 3c e4 87 cd 3c 08 e9 63 bd
       0.008285843 0.02878026 0.025089212 -0.055642158
0001b0 38 bb 5d 3d 07 b1 dc bc 70 b7 ef 3c ba 1f 51 bd
       0.054133624 -0.026939882 0.029262275 -0.051055647
0001c0 32 e0 3b 3d 60 a4 36 3d 3c 7d 39 bd f2 81 16 bd
       0.045868106 0.044590354 -0.04528545 -0.03674502
0001d0 b2 c8 1e 3d ae 24 4f 3d 8a f1 10 3d 1d de 66 bd
       0.038765617 0.05057209 0.0353866 -0.056364167
0001e0 ee ef 4a 3d a8 bb c7 3c b6 35 2f 3d 06 96 68 3d
       0.04954522 0.024381474 0.042775832 0.0567837
0001f0 24 0b 18 3d 5a 2f 33 3d ef 45 47 bd f4 7b 17 3d
       0.03712 0.04374633 -0.04865068 0.036983445
000200 18 57 2f bd 3c 09 34 bd b0 df 3b 3b 58 ad 5c 3d
       -0.04280767 -0.04395412 0.0028667264 0.05387625
000210 d6 04 14 3d a4 63 c2 3c 98 54 ff 3c 12 e8 32 3d
       0.036137424 0.023729153 0.031168267 0.04367835
000220 80 de 32 3c 28 3c bf 3c 9a 82 42 3d 38 bd c1 bc
       0.010917306 0.023344114 0.047487833 -0.023649797
000230 20 32 d4 3c 20 a3 22 bb e0 a0 20 3b c1 db 5b bd
       0.025902808 -0.0024816468 0.0024509951 -0.05367637
000240 80 77 2f 3d 3e 98 04 3d 58 2d 83 3b e4 27 3d bc
       0.042838573 0.032371752 0.004003208 -0.011545155
000250 8e 74 31 3d cf 87 4f bd 68 63 52 3d 9c 97 08 bd
       0.043324046 -0.050666627 0.051364332 -0.03334771
000260 70 fa 39 3c 60 d4 30 3c 90 21 ca 3b 8c db 20 3d
       0.011351213 0.010792822 0.0061685517 0.039271876
000270 c0 73 f2 3c 08 f8 e1 3c 80 52 5f ba 34 3f f2 3c
       0.02959621 0.02758409 -0.00085190684 0.029571153
000280 f6 0c 68 3d 28 e9 37 bc 74 aa 46 3d f4 f6 4a bd
       0.056652986 -0.011225022 0.0485024 -0.04955192
000290 c2 67 fb bc d8 1c 94 3c ac 8b 3d 3d e8 f0 80 bc
       -0.030689124 0.01808016 0.04627578 -0.015739873
0002a0 e0 3d 34 3c 48 ce b1 bc b9 b4 39 bd 1c 01 5f bd
       0.01100108 -0.021704808 -0.045338366 -0.054444417
0002b0 37 cb 64 bd b4 36 56 3d 16 b7 28 3d d0 7a 39 3b
       -0.055857863 0.052298263 0.04119023 0.0028301962
0002c0 c0 77 da 3a 48 61 37 3c c8 09 f8 3c d0 2e 98 3c
       0.0016667768 0.011192627 0.030278102 0.01857701
0002d0 43 5c 24 bd f8 b4 b8 bc 5c 62 cf bc 58 47 a3 3c
       -0.04012705 -0.02254723 -0.025315456 0.01993148
0002e0 16 9f 0f 3d 50 c3 fb 3b 62 29 1f bd 24 2e a2 bc
       0.035063826 0.007683195 -0.038857825 -0.019797392
0002f0 a0 f5 4c 3d e2 41 a3 bc e0 3b 98 3a 50 f3 e6 3b
       0.050038934 -0.019928876 0.0011614524 0.007048048
000300 68 42 47 3c 19 43 3a bd dc 6b 35 3d e0 93 9b 3b
       0.012161829 -0.045474146 0.044292316 0.0047478527
000310 28 92 cf 3c b5 01 6c bd 10 1c ef 3c 84 81 4e 3d
       0.025338247 -0.057618815 0.029188186 0.050416484
000320 7e cd 66 bd 76 d8 61 3d 90 32 83 3c 2a 13 03 bd
       -0.056348316 0.055138074 0.016015321 -0.0320007
000330 8a f3 5a bd be 31 3b 3d 73 54 05 bd f8 4b 8c bb
       -0.053454913 0.045701735 -0.03255124 -0.004281517
000340 0f 9d 0a bd 70 1a 39 3d 53 6e de bc 92 dc 2c bd
       -0.03384119 0.04519123 -0.027152216 -0.04220254
000350 c0 1a 25 bc 06 56 1f 3d e4 0e a6 bc c0 f7 38 bc
       -0.0100771785 0.038900398 -0.020270772 -0.011289537
000360 94 2b e9 bc 37 b9 31 bd ec e2 69 bc 70 3c 25 bc
       -0.028463162 -0.043389525 -0.014275294 -0.01008521
000370 d0 ce 65 3c 3c ab 42 bd cc fe 48 bd ee 0f 1e 3d
       0.014026359 -0.047526583 -0.04907112 0.03858941
000380 d8 79 e5 bb 50 02 1a bb 60 fe 77 bb 88 aa 19 3d
       -0.0070030503 -0.0023499914 -0.0037840828 0.037516147
000390 e6 73 88 bc 5f 69 32 bd 2c c8 7f bc 1c f6 a0 3c
       -0.016656827 -0.04355752 -0.01561169 0.019648604
0003a0 f5 bb f9 bc 5a 6c fa bc f4 db 30 3d 62 1e 11 3d
       -0.030485133 -0.030569244 0.043178514 0.035429366
0003b0 20 e4 7e 3b fd a5 31 bd 08 6b 27 bd 30 b4 3e 3d
       0.0038893297 -0.04337119 -0.040873557 0.04655856
0003c0 40 95 a5 3c ee 5e 11 bd 5c b7 b6 bc 60 0e 0e bb
       0.02021277 -0.035490923 -0.02230423 -0.0021676049
0003d0 f4 b4 4d bd 60 19 44 bd a4 29 95 bc a2 e4 ef bc
       -0.0502214 -0.047875762 -0.018208332 -0.029283825
0003e0 c0 77 9a 3c 8a ec 32 3d 02 28 f5 bc 76 78 16 3d
       0.01885593 0.043682612 -0.029926304 0.036735974
0003f0 0c cf 06 bc 7d ff 35 bd 6c 9f 63 bd d0 c6 27 bb
       -0.008228075 -0.044433106 -0.05557196 -0.002560068

encoder.layers.0.pos_ffn.fc.0.weight f4 [1024, 1]
000000 84 c3 38 bf 00 07 8c bb 46 83 5f 3f b8 53 57 3f
       -0.72173333 -0.0042732954 0.8730968 0.8411212
000010 50 f5 76 be 00 dc 47 3f 68 00 b9 be 9c 4e 83 3e
       -0.24117017 0.7807007 -0.36133122 0.25645912
000020 e4 3c 46 3f 3e d5 0e bf 9c f8 cd 3e 96 50 6f bf
       0.7743666 -0.5579413 0.40228736 -0.9348234
000030 92 5b 59 3f 90 f3 17 bf cc 65 fe 3e 14 c9 e0 be
       0.8490535 -0.5935602 0.4968704 -0.4390341
000040 30 6a 15 be c4 fc 6a 3f ac a0 36 bf 3c 0d b9 be
       -0.14591289 0.9179194 -0.71338916 -0.3614291
000050 72 ba 0a 3f a0 7a 36 bd d8 96 7e be a4 0b e1 be
       0.5419074 -0.044550538 -0.2486223 -0.43954194
000060 72 fb 33 bf 08 71 dd be e0 18 b2 bd 0a 77 01 bf
       -0.7030555 -0.43250299 -0.08696151 -0.50572264
000070 08 8f e7 be fe 14 59 3f 0e 2f 30 bf 84 52 81 3e
       -0.45226312 0.84797657 -0.688218 0.25258267
000080 06 dc 61 bf 30 2e ba 3e c0 53 0e bd 28 5e 7f 3e
       -0.88226354 0.36363363 -0.03474784 0.24938262
000090 aa 5b 1b bf 28 de 4a 3f 6e d2 74 bf 3c 01 d6 be
       -0.60686743 0.79245234 -0.9563359 -0.41797817
0000a0 08 1c a0 be f0 2a 3d 3f 38 36 0a be 62 9a 13 3f
       -0.31271386 0.7389364 -0.13497245 0.57657444
0000b0 94 30 86 be ec ea 15 bf f0 11 00 3e c4 72 d5 be
       -0.26208937 -0.5856159 0.12506843 -0.41689122
0000c0 90 f5 64 be f0 7c 82 3e 0e 1a 5d 3f 06 72 01 bf
       -0.223593 0.25485945 0.8636788 -0.5056461
0000d0 8c 33 79 3f 50 fd 62 3e cc 33 2b bf 0a 43 1e bf
       0.9734428 0.22166944 -0.6687591 -0.61821043
0000e0 94 e1 01 bf 00 bd 7a be 74 23 72 3f 50 9d 6e be
       -0.5073483 -0.2448616 0.9458535 -0.23302197
0000f0 88 92 0a 3e 38 84 2e 3e 38 53 f2 be 98 09 bb be
       0.1353246 0.17042625 -0.47329116 -0.36530757
000100 e0 47 0a be a0 aa a8 bd c0 1a 62 3f 3a 48 50 3f
       -0.1350398 -0.08235669 0.8832207 0.8136021
000110 28 5d 70 be 00 f7 93 3b 80 c0 ab bd 42 81 1f 3f
       -0.23473036 0.0045155287 -0.08386326 0.62306607
000120 a0 c3 f8 be 40 12 c1 be 22 97 23 3f 00 98 72 3c
       -0.4858675 -0.37709236 0.63902485 0.014806747
000130 f0 b0 18 bf f0 2a 4c be e0 54 c6 be d0 2c 02 3f
       -0.59644985 -0.19938254 -0.3873663 0.5084963
000140 40 1b e5 be d0 de d9 3e 88 9c 04 3f 12 b6 74 3f
       -0.44747353 0.42552805 0.5180135 0.9559032
000150 a8 48 55 be 00 69 38 3d 0c 5b f6 be 60 05 7f bd
       -0.20828497 0.04502201 -0.48116338 -0.062260985
000160 10 ee d9 be 08 b9 75 3e 7e 93 28 3f 70 73 1a bf
       -0.4256444 0.23996365 0.65850055 -0.60332394
000170 9a 87 7f 3f 78 94 aa 3e c8 10 0b be 84 8e 3c 3f
       0.99816287 0.33316398 -0.1358062 0.7365496
000180 b2 68 37 3f 76 25 6b 3f 50 de 35 3f 90 ad 68 be
       0.7164413 0.91854036 0.71042347 -0.22722459
000190 1c e0 9b be e0 5d 39 3d 04 54 84 3e 94 7f ef 3e
       -0.3044442 0.04525554 0.2584535 0.46777022
0001a0 ec ad 72 3f 86 18 0d 3f 30 d3 cc 3e c8 91 f8 3e
       0.94796634 0.55115545 0.40004873 0.48548722
0001b0 f4 5e 25 bf b0 33 1c 3f 28 a0 0a bf 7c 5c 29 bf
       -0.6459801 0.6101637 -0.5415063 -0.66156745
0001c0 80 81 70 3d 40 fb 85 be 30 af 4b be 30 65 7b be
       0.05871725 -0.2616825 -0.19891047 -0.24550319
0001d0 a0 fe 5f 3d 28 e4 9c be 04 85 d4 be cc 19 b0 3e
       0.05468619 -0.3064282 -0.41507733 0.3439468
0001e0 c8 15 46 3f 80 6d 01 3e 5a 23 3c bf 26 96 53 3f
       0.77376986 0.12639427 -0.7349144 0.82650983
0001f0 78 5a ee 3e c0 76 3c 3d 14 a9 fb be 40 6f 5c bf
       0.46553397 0.046011686 -0.49152434 -0.86107254
000200 a0 c7 d6 3e 6c 3f 29 3f 24 38 fd 3e f8 a2 29 bf
       0.41949177 0.661124 0.49456894 -0.66264296
000210 b0 31 3f bf 28 ba d6 3e 20 6f 57 3d 40 38 d9 3c
       -0.7468519 0.419389 0.05259621 0.02651608
000220 5a ff 02 3f 42 34 6f 3f a6 13 00 3f ac 42 6f 3f
       0.51170886 0.93439114 0.5002998 0.9346111
000230 50 e3 56 3f 22 f1 70 3f 2e ea 24 3f 90 ee 37 3f
       0.839406 0.9411794 0.6441983 0.7184839
000240 98 71 14 3e c0 98 77 bf c6 9f 20 3f 40 94 ac 3c
       0.14496458 -0.96717453 0.62743795 0.021066785
000250 2a 30 48 bf 70 d8 2b 3f 2c 07 f9 be 68 1b 96 3e
       -0.7819849 0.6712713 -0.48638284 0.29317784
000260 f6 e2 76 bf 78 71 42 bf 70 e5 f5 3e 8c 27 8c be
       -0.96440065 -0.7595439 0.4802661 -0.27373922
000270 fc 9b 25 3f 40 5e 00 3e 98 18 5f be 28 82 0f be
       0.6469114 0.12535954 -0.21786726 -0.14014494
000280 3c 0a bc be 68 69 ef 3e 44 96 7b bf d2 22 5e bf
       -0.36726558 0.46760106 -0.9827616 -0.8677188
000290 84 fe 99 3e 82 1c 0d 3f 80 01 58 be 00 cb f0 bd
       0.30076993 0.55121624 -0.21094322 -0.11757469
0002a0 80 e1 c2 bd 60 53 7a 3d 2e 4f 3d bf 80 32 dc bc
       -0.09515667 0.06111467 -0.73948944 -0.026879549
0002b0 a2 f0 3c 3f de 3e 0a 3f 64 ec 1c bf 42 62 5a bf
       0.73804677 0.5400218 -0.61298203 -0.8530618
0002c0 4c 7e e7 3e a8 49 96 be 3a 4f 59 3f 5c 32 fa 3e
       0.45213544 -0.2935307 0.84886515 0.48866546
0002d0 f6 1b 59 bf a4 54 91 be 3c c2 ab be 52 36 42 3f
       -0.8480829 -0.28384888 -0.33546627 0.75864136
0002e0 e8 07 63 bf fc a8 65 bf f4 a4 69 3f 90 47 e1 bd
       -0.8868394 -0.89710975 0.91267323 -0.109999776
0002f0 d2 4d 0d bf 3c 25 94 be 8c 00 73 bf c0 64 44 bd
       -0.5519687 -0.28934658 -0.9492271 -0.047947645
000300 30 ae 4c bf 68 19 38 3e a0 c6 1c 3e 54 9e 8a 3e
       -0.7995329 0.17978442 0.15310144 0.2707392
000310 c0 74 53 bf 60 f2 39 bf e0 d5 c7 bd ca 12 78 3f
       -0.8260002 -0.7263546 -0.0975759 0.9690367
000320 18 c3 1d 3e 1e 3f 28 3f 48 2f 5a 3e 78 2c 98 3e
       0.15406454 0.6572131 0.21307099 0.29721427
000330 10 7e 8f bd 44 50 e2 3e 8c 2b e8 3e 64 ea 5b 3f
       -0.070064664 0.44201863 0.45345724 0.85904527
000340 70 49 f8 3e 88 c0 96 3e b8 f3 46 be 58 26 14 bf
       0.48493528 0.29443765 -0.19428909 -0.5787101
000350 f0 60 5c bf 08 c8 5a 3f 80 23 cc bc 84 50 6a bf
       -0.86085415 0.85461473 -0.024919271 -0.9152911
000360 64 3f 21 bf 60 51 9b 3d a8 9c 02 bf 04 79 9f be
       -0.6298735 0.075838804 -0.5102029 -0.31147015
000370 30 76 10 be 2e 45 14 bf 02 5b 66 3f fe 6b 7e bf
       -0.14107585 -0.5791806 0.89982617 -0.99383533
000380 b0 12 85 bd aa 0a 62 3f 10 f1 3a 3f c4 62 3b 3f
       -0.06497705 0.8829752 0.7302408 0.7319758
000390 3c 92 ef be a0 ca 1d bd a0 2d 59 bf 9a c8 18 3f
       -0.46791255 -0.038523316 -0.84835243 0.59681094
0003a0 b8 9d 29 bf 54 9c fa be e4 77 15 bf 80 e9 5f bf
       -0.66256285 -0.48947394 -0.58386064 -0.8746567
0003b0 6c da f3 3e 0a b7 04 3f 3c a2 12 3f d2 e8 3f 3f
       0.4762758 0.51841795 0.572788 0.7496463
0003c0 44 40 c6 be 00 d2 ca 3c 2c 18 99 3e 30 33 99 be
       -0.38720906 0.024758339 0.29901254 -0.29921865
0003d0 aa ad 3b bf 12 32 22 bf bc c7 22 3f fc 19 42 bf
       -0.73311865 -0.6335765 0.6358602 -0.758209
0003e0 20 7e c6 3d 78 ab 0e bf ba 3f 34 bf 5c c8 71 bf
       0.09692025 -0.5573039 -0.7040974 -0.9444635
0003f0 78 93 0b be c0 4f 6b bd 08 4e ac be 54 0b 68 bf
       -0.13630474 -0.057449102 -0.33653283 -0.90642285

encoder.layers.0.pos_ffn.fc.2.weight f4 [1, 1024]
000000 a8 44 9e bb b4 35 1c 3c ec be b7 bc 10 96 a7 bc
       -0.004829962 0.009534288 -0.022429906 -0.020457298
000010 f6 88 c6 3c 18 f7 88 bc 24 ab ad 3c ec 79 d3 3c
       0.02423523 -0.016719386 0.02119977 0.025814973
000020 2c 69 bc bc 60 13 96 3b 10 d0 e2 bc 26 7a 82 3c
       -0.022999369 0.0045799464 -0.027687103 0.015927386
000030 88 4f 8d bc 00 57 9f 3b 68 d9 43 3c aa bd 86 3c
       -0.017249838 0.004862666 0.011953689 0.01644786
000040 a4 40 f0 3c dc 05 4c 3c 00 09 ae 39 1e 2b d0 bc
       0.029327698 0.012452569 0.00033194572 -0.025411185
000050 d4 eb 65 3c d0 7c f6 3b 00 78 7d 38 50 37 94 bc
       0.014033277 0.007522203 6.043166e-05 -0.018092781
000060 58 7a 1b bc 70 d9 81 3c b0 30 5c 3b 6c 97 47 bc
       -0.009489618 0.015850753 0.0033598356 -0.012182098
000070 2c 05 39 bc da b4 a4 bc b0 ae 36 bc 5e 74 a6 bc
       -0.011292737 -0.020105768 -0.011150047 -0.02031916
000080 50 71 85 bb be 4d e9 3c 8e 88 d5 3c b8 e8 ce bb
       -0.004072346 0.028479453 0.02606609 -0.0063143633
000090 a0 24 e9 bb e8 1f b4 3b 30 c9 6d bc a0 59 76 3b
       -0.0071149617 0.0054969676 -0.014513299 0.0037590042
0000a0 00 fb fa ba fa 1c c6 bc 08 a0 ef 3c 80 ca b6 bc
       -0.001914829 -0.024183739 0.029251114 -0.022313356
0000b0 e4 67 db bc 9c 2a 92 bc 06 20 ea bc d8 7b 85 bb
       -0.026782937 -0.017842583 -0.028579723 -0.004073601
0000c0 70 32 51 bc 12 0c bb 3c 50 e7 fe bb e8 c9 b9 bb
       -0.012768373 0.022832904 -0.0077790394 -0.005669821
0000d0 12 b2 f4 3c d2 92 ff 3c c4 de 78 3c ec 67 fe bc
       0.029870067 0.031197939 0.01518983 -0.031055413
0000e0 08 9f 6d 3c 40 b6 37 bc 9c a0 78 bc 44 eb 28 3c
       0.014503248 -0.011212885 -0.015175011 0.010309998
0000f0 5a b1 fc bc 68 57 79 3c 6c a8 a7 bc 26 52 e5 bc
       -0.030846287 0.015218593 -0.020466052 -0.027993273
000100 50 19 f7 3c 28 3d 5b 3c dc 8f 2f bc fa 43 ff 3c
       0.030163437 0.01338128 -0.010715451 0.031160343
000110 a4 1e 98 bc 54 bc 75 3c 38 fc e6 3c 58 c7 73 3c
       -0.018569298 0.014998514 0.02819644 0.01487907
000120 d0 09 e4 3c aa d0 fe bc 6c 21 d3 bc f6 0b e4 bc
       0.02783671 -0.031105358 -0.025772773 -0.027837735
000130 80 00 1a 3b ee 23 8a bc c2 2a bb bc 4a 00 bd 3c
       0.0023498833 -0.016862836 -0.022847537 0.023071427
000140 60 d2 8c 3c 5a 21 f7 bc 40 b2 a0 3c c6 8f df bc
       0.017190158 -0.03016727 0.019616246 -0.027290236
000150 e0 3d 32 3c fc 13 82 3c 2e 6c f9 bc 2a cb a4 bc
       0.01087901 0.01587867 -0.030447092 -0.020116407
000160 e6 6d b5 bc a0 b5 97 bc a0 15 82 3a 8c 44 96 3c
       -0.02214713 -0.018519223 0.0009924658 0.018343233
000170 36 35 f0 bc 56 8e d6 bc 10 e3 12 3b b8 a2 e8 bb
       -0.029322248 -0.026190918 0.0022413172 -0.0070994757
000180 06 9d de bc 60 c4 cd 3b 98 73 f7 3c 3c 72 83 3c
       -0.027174484 0.0062795132 0.030206487 0.016045682
000190 d0 c4 96 bc 60 cb 77 3b 90 89 19 bc c4 ff 09 bc
       -0.018404394 0.003781043 -0.009371176 -0.008422796
0001a0 6c 26 39 3c 40 74 40 bb e0 b4 86 ba 70 2b 9e 3c
       0.011300664 -0.0029366165 -0.0010277294 0.019307822
0001b0 40 4f 03 3c 2a 81 d5 3c 86 61 d1 bc 48 5c b6 bc
       0.0080145 0.026062567 -0.025559198 -0.0222608
0001c0 c4 8c f8 3c 00 63 c9 3a 42 a2 9b 3c 50 00 b5 bb
       0.03034056 0.0015364587 0.018998269 -0.005523719
0001d0 68 5b a3 bb 50 3e ae bc 5c 66 58 3c b4 4e 5a 3c
       -0.0049852617 -0.021269947 0.013207998 0.013324428
0001e0 44 76 54 3c 32 00 8e bc e0 9f 2d 3c e6 2f 9c 3c
       0.01296765 -0.017334078 0.010597199 0.019065809
0001f0 58 82 71 bc 00 47 0b 3b 20 90 76 bc 5c 3d 65 bc
       -0.014740549 0.0021252036 -0.0150490105 -0.01399168
000200 ac aa c6 3c e0 01 b8 3c 58 79 6f bc 90 7f bd 3b
       0.024251305 0.022461832 -0.014616333 0.005783029
000210 80 a0 63 bc 98 2f 98 bb 5e 4c e9 bc 94 01 53 3c
       -0.013893247 -0.0046443455 -0.028478798 0.012878794
000220 6e a3 ed bc bc 20 c0 3c ba f2 a5 3c b8 08 f2 bc
       -0.029008593 0.023453109 0.020257343 -0.029545173
000230 3e 31 c4 3c f4 6d b8 3c d8 1c f3 bb de ca 90 bc
       0.023949262 0.022513367 -0.00741921 -0.01767486
000240 60 5a 5a bb 34 70 1d 3c 5e 39 d4 bc 10 a8 f0 3c
       -0.0033318028 0.009609271 -0.025906261 0.029377013
000250 00 9c 4f bc f8 26 8e bb 00 6a 34 3b 0c 88 3e bc
       -0.012671471 -0.0043381415 0.0027529001 -0.011629116
000260 38 3f 8f bc b4 bd d8 3c 40 40 d7 3a 1a d8 88 3c
       -0.0174862 0.026457645 0.0016422346 0.016704608
000270 1c 51 3b bc 00 f2 f5 ba 4a cd a4 3c c8 30 31 bc
       -0.011432912 -0.0018764138 0.02011742 -0.010814853
000280 54 d5 59 bc 28 9f 7c bc 14 73 cf 3c c4 5e 86 3c
       -0.01329549 -0.015418805 0.025323428 0.01640261
000290 e0 5f 88 3c 10 e5 bf bb 20 d9 de ba 3c 8a 3c bc
       0.01664728 -0.005856164 -0.0017001964 -0.011507567
0002a0 00 30 d4 37 28 95 2a 3c 58 23 35 3c d6 d3 8f bc
       2.5294721e-05 0.010411538 0.01105579 -0.017557066
0002b0 ac 6f 5f 3c fc 3b 6a bc 90 06 d6 bb a0 b1 9c bc
       0.0136374645 -0.014296528 -0.006531544 -0.019127667
0002c0 4c 8a 0d 3c e2 a2 ee bc 58 40 82 bb 00 68 ba 3b
       0.00863893 -0.029130403 -0.0039749555 0.0056886673
0002d0 76 6e 83 bc 3c 17 85 3c fc 4d 15 bc d2 80 9f bc
       -0.016043883 0.01624643 -0.009112831 -0.019470606
0002e0 1c b0 5a bc c0 35 78 ba 9c 49 74 bc c6 9c b2 3c
       -0.013347652 -0.00094684586 -0.014910128 0.021803271
0002f0 40 f7 16 3b 72 c1 a8 3c 20 9d c3 3a 80 f3 5e ba
       0.0023035556 0.020600054 0.0014924146 -0.0008504912
000300 f0 9c 1a bc 04 0b b2 bc 68 0d c2 3b 02 50 e3 bc
       -0.009436831 -0.021733768 0.0059220083 -0.027748112
000310 30 ba bf 3c b0 b3 a5 3c 08 cc b8 3c 32 2d 8e bc
       0.02340421 0.020227283 0.022558227 -0.017355535
000320 d0 2b 27 bb 94 bd 49 bc 80 8c 20 bc e8 39 91 3c
       -0.0025508292 -0.012313265 -0.009799123 0.017727807
000330 94 63 7f bc 5e 1a ae bc 00 c5 6c bc 50 af 88 bb
       -0.015587706 -0.021252807 -0.014451265 -0.0041712895
000340 30 b2 d3 3c 88 5f 12 3c 62 cd c3 bc 68 53 d5 3c
       0.025841802 0.008933909 -0.023901645 0.026040748
000350 00 f0 ca 39 1a ad bd 3c e0 6c 83 bb 60 7f 09 bc
       0.00038707256 0.02315383 -0.0040107816 -0.008392185
000360 04 96 31 bc 3e f8 ae 3c d8 e0 8c 3b 74 f9 e7 3c
       -0.010838989 0.021358605 0.0042992644 0.02831719
000370 80 a8 0c ba de b8 b3 3c 60 c4 1e bb a8 d9 66 3c
       -0.00053656846 0.021938737 -0.0024225935 0.014089979
000380 00 e0 76 39 14 52 f0 3c ce 14 b8 3c c0 f5 df 3b
       0.00023543835 0.029336013 0.022470858 0.0068347156
000390 f0 7b 72 3c be 4c 94 3c f4 8d 5e 3c 46 90 e9 3c
       0.014800057 0.018103 0.013583649 0.028511178
0003a0 40 58 81 3c 44 3d 7f bc 40 b2 65 3c 80 09 72 3a
       0.015789151 -0.015578572 0.014019549 0.0009232983
0003b0 2a 6e d3 bc cc 6c 49 3c 4c fa d0 bc 44 d0 d9 bc
       -0.025809366 0.012294006 -0.025509976 -0.026588567
0003c0 8a 6d d1 bc 30 71 b9 3b e0 3d 65 bb 58 f5 75 bc
       -0.025564928 0.005659245 -0.0034979507 -0.015012108
0003d0 b8 fd ab 3b a8 0d e8 bb f8 cd ad 3c 40 96 90 ba
       0.0052487515 -0.007081706 0.021216378 -0.0011031106
0003e0 18 61 b9 bb 26 fb b9 bc 96 59 f4 3c 2e 77 8a bc
       -0.0056573264 -0.022702765 0.029827874 -0.016902532
0003f0 60 b8 47 3b fc 5f b5 3c 14 70 ff 3c 5e a6 cd 3c
       0.0030474886 0.022140495 0.031181373 0.025103744

encoder.layers.1.enc_self_attn.W_Q.weight f4 [300, 1]
000000 d6 d3 46 3f 88 03 71 bf 88 be f7 3e 98 f8 2d 3e
       0.77666986 -0.94146013 0.4838755 0.16989362
000010 c2 78 49 3f 38 ce 0a be ac 0d ef be 08 ed 45 be
       0.78699887 -0.13555229 -0.46690118 -0.19328701
000020 a8 7d 1d 3e d4 1c d0 3e 26 a7 75 bf 9a 62 59 bf
       0.15379965 0.40646994 -0.95958173 -0.8491608
000030 16 ab 2c 3f 8e 9e 18 3f f0 c3 7e bf c0 14 0d bd
       0.67448556 0.59616935 -0.99517727 -0.034443617
000040 28 65 21 bf 94 46 e9 3e 78 cb 6e bf d8 4f 1a bf
       -0.6304498 0.4556166 -0.9327922 -0.6027808
000050 50 af 81 bd 1a cf 79 3f ac 4a ca 3e 2e 40 09 3f
       -0.06332266 0.97581637 0.39510095 0.53613555
000060 6c a2 a0 3e 40 f9 e5 bc 90 87 36 3e 00 b0 09 3b
       0.31373918 -0.028072953 0.1782515 0.0021009445
000070 34 1d 4e bf a0 cb 72 3f 00 b0 80 3c 68 17 8d 3e
       -0.8051331 0.9484196 0.015708923 0.2755692
000080 a2 f5 53 3f 22 45 25 3f 20 87 33 be be 4a 1e 3f
       0.8279668 0.64558613 -0.17532015 0.618328
000090 7a 5c 22 bf b4 4b 8b be 98 6e 13 3f 30 45 d0 bd
       -0.6342236 -0.27206194 0.5759063 -0.101694465
0000a0 c4 0b e5 3e d4 86 f8 3e 58 5a 9c be f0 51 36 bf
       0.4473554 0.48540366 -0.30537677 -0.71218777
0000b0 0a 90 6d bf c0 d6 70 3f 80 84 74 3c d0 05 ff 3e
       -0.9279791 0.9407768 0.014924169 0.49809122
0000c0 64 87 1d 3f b8 cd 30 3f e6 2a 64 bf 5c fc 86 be
       0.61534715 0.690639 -0.8912796 -0.2636441
0000d0 4c 5c 3d 3f 40 b6 71 bd 60 3f a5 bd a2 46 6b 3f
       0.7396896 -0.059011698 -0.080687284 0.9190465
0000e0 3c 2a 0c bf b4 9e 59 bf e6 d5 29 bf fc 00 6a bf
       -0.54751945 -0.85007787 -0.6634201 -0.9140775
0000f0 c0 bb e9 3c 3c 56 ac 3e 26 4e 21 bf c4 4d e3 3e
       0.028531909 0.33659542 -0.6300987 0.44395268
000100 68 fd 0c bf 50 6c e3 3e 8e e2 5e bf d0 2d 1a 3e
       -0.5507417 0.44418573 -0.87064445 0.15056539
000110 cc cc 70 3f e4 4b b3 3e 00 46 13 3e f4 16 48 bf
       0.94062495 0.35018837 0.14382172 -0.78160024
000120 aa b1 68 bf f6 c5 10 3f c0 2e b9 bd 8c 46 86 be
       -0.90896094 0.56552064 -0.0904212 -0.26225698
000130 ca ed 08 bf 2e 85 54 3f 24 6f 85 3e 20 c6 38 3f
       -0.5348784 0.83015716 0.26061356 0.72177315
000140 50 bf aa be 6c d0 ed be 50 eb f7 3e d8 d2 4f be
       -0.33349085 -0.46448076 0.48421717 -0.20295274
000150 10 77 9e be f4 c1 8f 3e b8 d1 ad 3e b2 4e 3f 3f
       -0.30950212 0.28077662 0.33949065 0.74729455
000160 a0 5a 40 bd 90 70 92 be ae 93 4e bf 38 f5 7f bf
       -0.046961427 -0.28601503 -0.8069409 -0.9998355
000170 42 cf 7a 3f 8c 25 f2 be 70 74 65 bf 10 2a 5d 3f
       0.979725 -0.4729427 -0.89630795 0.8639231
000180 20 ab 82 3e 88 d6 5f be 10 49 c7 3d 82 e1 2f bf
       0.25521183 -0.21859181 0.097307324 -0.6870347
000190 18 a2 37 bf 00 02 d7 3e 30 26 f4 3e 94 3d e7 3e
       -0.7173171 0.41993713 0.47685385 0.45164168
0001a0 1c 7e b1 3e 00 02 c4 3e e0 9a b7 be 6e d1 62 bf
       0.34666526 0.38282776 -0.35860348 -0.88600814
0001b0 54 0b b6 be 00 4e 69 3c f0 6a f2 3e 18 2e da be
       -0.35555518 0.014239788 0.47347212 -0.42613292
0001c0 f8 f3 9c be ca f9 67 bf 10 c6 2b be aa 83 51 3f
       -0.30654883 -0.9061552 -0.16774774 0.8184153
0001d0 54 78 da be 50 ac 34 be 50 b5 98 3e 78 a8 4c be
       -0.42669928 -0.17643857 0.2982583 -0.1998614
0001e0 2a 43 4b bf 80 00 3e 3d a0 cb ff be ec ad 55 bf
       -0.7939936 0.046387196 -0.4996004 -0.8346851
0001f0 60 41 dc be dc 5a ee 3e 18 ff 5c be 9c 3e e0 3e
       -0.43018627 0.46553695 -0.21581686 0.43797767
000200 e2 ec 5b bf 0a bd 27 3f d0 81 c0 be ba 9a 1d bf
       -0.8590833 0.65522826 -0.3759904 -0.6156422
000210 20 ee 50 3e 80 bd d0 3c 26 5b 15 bf 0a 31 53 bf
       0.20403337 0.025480986 -0.58342206 -0.824967
000220 c0 1a 71 3d 60 2b 32 bf 00 33 97 bd 22 89 06 bf
       0.0588634 -0.69597435 -0.07382774 -0.52553
000230 4c 97 cc be 5c 12 b8 be a8 c5 21 be ac 0d 2f 3f
       -0.3995918 -0.35951507 -0.15798056 0.68380237
000240 0e 8e 1c bf 1c b9 18 3f 80 fc e3 3e 00 23 49 be
       -0.6115426 0.59657454 0.4452858 -0.19642258
000250 f0 54 a7 3d 10 73 da be 52 af 46 bf e0 02 d6 3e
       0.081704974 -0.4266591 -0.7761127 0.41799068
000260 bc 03 02 bf 76 a9 2d 3f c0 42 23 3e bc ed 52 bf
       -0.5078695 0.678367 0.15943432 -0.82394004
000270 c2 6d 47 bf f0 7a 00 be 3c 9e 28 3f d8 a6 d1 be
       -0.7790185 -0.12546897 0.65866446 -0.40947604
000280 a8 9d 6c 3f 00 d8 87 3e e4 fe b1 3e 44 0c e2 3e
       0.92428064 0.26531982 0.3476478 0.44149983
000290 e0 0f ee be e0 b5 73 3d ca 01 3b 3f 2c 8d 73 3f
       -0.46496487 0.05949962 0.73049605 0.95137286
0002a0 40 52 07 3e f4 fe c6 be 90 a9 a2 3d 80 2d 29 3e
       0.1321497 -0.3886639 0.07942498 0.16521263
0002b0 ec b3 1d 3f 50 bd 5b 3e 00 67 d9 3b a8 ae 14 be
       0.61602664 0.21458936 0.006634593 -0.14519751
0002c0 9a b6 53 bf d2 17 44 3f 20 7b eb bd d8 a8 04 be
       -0.827005 0.76598847 -0.114980936 -0.12955034
0002d0 e8 02 13 3e 82 f4 76 3f c0 4f bc bd 1c ad a9 3e
       0.14356577 0.9646684 -0.091948986 0.33139884
0002e0 60 78 4b 3d 9c 64 c3 be 04 f3 d3 3e a4 9c aa 3e
       0.049675345 -0.38162696 0.41396344 0.33322632
0002f0 7e 2d 6b bf d4 06 25 bf 24 92 c6 be 68 44 3f 3e
       -0.9186629 -0.64463544 -0.3878337 0.18678439
000300 a6 88 4d bf c0 a8 85 bd 58 2d c6 3e 80 4c 28 3c
       -0.80286634 -0.06526327 0.3870647 0.010272145
000310 2c 2d 24 3f e8 8f 2d bf f6 bd 55 3f 18 7c 12 bf
       0.64131427 -0.6779771 0.8349298 -0.572206
000320 70 6a 08 be 30 a3 8b bd a6 89 37 3f 30 e8 1f 3e
       -0.13321853 -0.06818235 0.7169441 0.15615916
000330 de 3a 6f 3f d6 c9 31 bf 50 70 39 bf a0 e4 9a bd
       0.934492 -0.694486 -0.72437 -0.07563138
000340 68 19 e8 be 04 98 33 bf 54 38 b5 be 70 4f ec bd
       -0.45331883 -0.7015383 -0.35394537 -0.11538589
000350 5e 05 4a 3f e8 ec f7 be e8 6f 5e 3e 56 5d 0b 3f
       0.7891444 -0.48422933 0.21722376 0.54439294
000360 20 ac 2b 3e b2 68 1d 3f 78 9b 5b 3f 10 4b 34 bf
       0.16764879 0.6148788 0.857841 -0.70427036
000370 c0 93 32 bf 88 7a 12 3e 64 06 e2 3e 6c e4 a0 be
       -0.697567 0.14304554 0.441455 -0.31424272
000380 48 0b 24 be 36 85 09 3f f0 b3 03 be 10 3f bb bd
       -0.16019928 0.5371889 -0.1286161 -0.091428876
000390 d8 c9 02 bf 58 a9 f0 3e e0 90 2e 3d 58 55 3f bf
       -0.5108924 0.470042 0.042618632 -0.747396
0003a0 d8 87 2c 3e 94 ad b3 be 76 6c 58 3f 08 bf 4e 3f
       0.16848695 -0.35093367 0.845405 0.8076024
0003b0 e0 12 93 bd 5a c6 6e bf 8a 50 11 3f f8 4e 6f 3f
       -0.071813345 -0.9327141 0.5676352 0.9347987
0003c0 b2 b2 6d bf e0 49 4e 3f 10 02 87 be 00 c9 4b 3e
       -0.9285079 0.80581474 -0.2636876 0.19900894
0003d0 14 10 e4 3e 7e 5f 01 3f 10 a5 8e be 1c 89 a6 be
       0.44543517 0.50536335 -0.27860308 -0.3252648
0003e0 fc 2d 4a 3f 7c 9b e0 3e 62 46 52 bf 4c 3a 40 3f
       0.78976417 0.43868625 -0.82138646 0.75088954
0003f0 80 c2 63 3f e2 67 7c bf 28 7a 6a be 98 b6 3a 3f
       0.8896866 -0.9859601 -0.22898161 0.72934866
